pretrained_models/accent-id-commonaccent_ecapa/classifier.ckpt (torch, 13172 bytes, 1 tensors)

weight f4 [16, 192]
000000 a7 07 cb 3d a0 0b d9 bc 49 e5 ab bd e0 06 47 3e
       0.09913569 -0.026494801 -0.08393342 0.19436216
000010 4e ac 12 3e 3e 5e 7a bd 3e 11 d5 3d 5e b0 46 3d
       0.14323542 -0.061125033 0.10403679 0.04850804
000020 57 df 84 3c 87 c6 23 be 91 53 b2 bd 43 02 06 be
       0.016219778 -0.15993701 -0.08707345 -0.130868
000030 e2 a3 ac bd 48 f9 d9 bc f0 d5 4c 3d 74 33 d2 3d
       -0.08429696 -0.026608124 0.050008714 0.1026372
000040 49 0e d3 3d 31 4f b5 bd d2 3b e7 3b 8d 2b 3f be
       0.10305459 -0.08852995 0.0070566917 -0.18668957
000050 e4 3a f0 3c 0f b6 f4 bd 76 1f 6e bd 97 e6 c1 bd
       0.029324956 -0.119487874 -0.058135472 -0.0946781
000060 0e d4 63 3d 05 8a e2 3d 6d c0 41 3d d0 a2 e1 3d
       0.055622153 0.110614814 0.047302652 0.11017382
000070 28 bf 60 3d a8 8b 6d 3d 68 30 33 be 61 0e cd 3d
       0.0548698 0.057994515 -0.17498934 0.10012508
000080 d8 7d 5a 3c 29 36 d9 bd b7 4e b3 3d 30 bf a1 bd
       0.013335668 -0.10606033 0.08755248 -0.07897794
000090 69 1f 04 bd af aa 61 3d 4a c7 8e bd 6d 50 14 3e
       -0.032256518 0.055094417 -0.06971605 0.14483805
0000a0 51 79 43 bc 62 d7 f6 3d d2 73 19 be a9 b9 33 bd
       -0.01193078 0.120528 -0.14985588 -0.04387823
0000b0 10 f0 91 bc 15 61 88 3d 53 8f 0c 3e d3 e9 f4 3d
       -0.017814666 0.06659142 0.13726549 0.11958661
0000c0 01 e6 37 be 66 45 d7 3d 7d a7 59 bd e2 1b ae bd
       -0.17958833 0.105112836 -0.053138245 -0.08501412
0000d0 d1 72 83 3d 5a 67 bd bd c1 2f bd 3c 7d c4 21 bd
       0.06418384 -0.09248228 0.02309406 -0.039494026
0000e0 14 16 8f 3b 46 b5 a7 bd d2 67 01 3e 27 40 9a 3d
       0.0043666456 -0.08188872 0.1263726 0.07531767
0000f0 1e a2 cd 3c 21 71 81 bd 82 65 b4 3d 69 0d c0 bc
       0.025101718 -0.06320406 0.088084236 -0.023443894
000100 61 41 1f 3d bc 2e 5a bc d3 38 a3 bc d2 7b 0e be
       0.03888071 -0.013316806 -0.019924557 -0.13914421
000110 20 fb d3 bc 10 a7 8d bc 14 cc 9b bd 18 34 47 be
       -0.025876582 -0.017291576 -0.07607284 -0.19453466
000120 3c 54 2c 3e 17 08 0f bc cf 0f e0 bd c3 5f 9e bd
       0.16829008 -0.008729956 -0.10940515 -0.07733109
000130 bb c3 a7 3d 73 15 b1 bd 84 86 1a 3e 4a 2f 9b 3c
       0.081916295 -0.08646669 0.15090376 0.018943448
000140 1a 64 1a bb 87 71 9d bd c8 df 9a 3d 31 ee 05 3d
       -0.00235582 -0.07687669 0.07562214 0.03269786
000150 02 e3 35 3d c8 83 ce 3d 8f 70 90 3b ee 6c 85 3d
       0.044405945 0.10083729 0.0044079493 0.06514917
000160 a5 69 51 bd 30 60 4d 3e a1 de 96 bd 2d 89 fd 3d
       -0.05112614 0.20056224 -0.07366682 0.1237968
000170 f7 0d 84 3d b2 ac 29 be 87 4f af 3d 02 76 f8 3c
       0.06447976 -0.16569784 0.085600905 0.030329708
000180 fa c5 e4 3d 0b 7f 9e bc ea cf 02 bd bd fe f5 bd
       0.111705735 -0.019347688 -0.031936564 -0.12011478
000190 87 d1 51 bb 49 cf b6 3d 7a a8 02 3e 1a e7 1a be
       -0.0032015757 0.08926255 0.12759581 -0.15127221
0001a0 b2 92 9b 3d fa 67 66 3e fb 82 a3 3d e4 ce f9 3d
       0.07596339 0.22500601 0.07983967 0.121976644
0001b0 b3 1f 29 3e f9 ac e3 3d 6e 60 65 3d ab 4a 3d 3d
       0.16515999 0.11116976 0.056000166 0.046213787
0001c0 41 79 9b 3d 97 02 0b 3e d8 c6 8b bc fe c9 d2 3c
       0.07591487 0.13575207 -0.01706259 0.025731083
0001d0 db e0 8d 3d c3 f6 f7 bd 9a 0b 8f 39 12 39 2e be
       0.069276534 -0.12107613 0.0002728373 -0.17013958
0001e0 23 6a 9a 3d 6c a3 14 3e 04 c6 9b bd 9b dc fe 3d
       0.07539775 0.14515465 -0.07606128 0.12444421
0001f0 52 51 4e bd ef bb 04 be eb 5f 0a 3e d5 1a cf bc
       -0.05037052 -0.12962316 0.13513152 -0.02528135
000200 2c e7 e7 3c ce f4 0c 3d 1b 76 2c bc ca cb e2 bc
       0.028308474 0.03441315 -0.010526205 -0.027685065
000210 7b 76 13 bc 47 ae af 3c e9 7c e0 3c 79 ea 1c bd
       -0.009000416 0.021445407 0.027403312 -0.038309548
000220 bc fd c8 bd fb eb 16 be ea 7a ff bd 5c c9 14 be
       -0.09814021 -0.14738457 -0.12474616 -0.14529938
000230 b2 79 1c be df 6d fd 3d 9b ac 2d 3d e3 13 8f 3d
       -0.15280798 0.12374472 0.042400938 0.06986215
000240 fe bb 04 3e c7 eb c0 3d 17 50 20 3e b5 1c 34 bc
       0.12962338 0.09419971 0.15655552 -0.010993172
000250 cc f8 3b bd 96 0b f6 3d 1e fc f2 3c 69 6d fb bd
       -0.045891568 0.120139286 0.029661234 -0.12276728
000260 f1 be b2 3d 0d 12 13 bd 15 a0 26 be 6b bc ba 3d
       0.087278254 -0.035905886 -0.16272004 0.09117969
000270 ce e3 c3 bd 61 c9 b3 bd 2e 1d 69 bd eb 58 3e bc
       -0.09564935 -0.08778644 -0.056912594 -0.011617879
000280 c9 00 7f bd 23 f3 37 be e5 4e d7 3d 09 0e 2b 3d
       -0.06225661 -0.17963843 0.10513095 0.04176143
000290 fc 91 2c 3d 6c 97 3d 3c 3f b8 ed 3a f0 ba fe bd
       0.04213141 0.011571746 0.0018136575 -0.12437999
0002a0 93 29 54 3d ce 30 27 3b 77 2d 88 3d b1 79 b0 3c
       0.05179746 0.0025511268 0.06649297 0.021542402
0002b0 86 6d 1f 3e 2a 21 37 be 91 65 1b 3e 4f be dc 3d
       0.15569124 -0.17883745 0.15175463 0.10778486
0002c0 b6 78 b8 bd b3 63 1f be 7b 68 80 bd 97 56 76 bb
       -0.09007399 -0.15565376 -0.06269928 -0.0037588233
0002d0 42 82 e9 3c d1 b8 11 3e 91 d7 cb bd 2f 1b 0c ba
       0.028504495 0.14230658 -0.099532254 -0.0005344627
0002e0 d5 45 22 3c 51 fa e8 bd 8f 81 1e 3e 7e 60 7d bd
       0.009904345 -0.11375869 0.1547911 -0.0618596
0002f0 45 23 64 3d d7 02 f0 3d 54 80 d4 3d ba 9e ab 3d
       0.0556977 0.11719292 0.10376039 0.08379884
000300 86 b9 18 3e 9d 8b 86 3d 2c d7 91 3d 17 57 09 3e
       0.14914522 0.06569598 0.07121119 0.13412128
000310 97 65 19 3e 07 b7 34 3d 7b 9f e9 3d d8 f1 12 bd
       0.1498016 0.04411986 0.114073716 -0.03587517
000320 1d 14 a3 bd 30 ca 3c be 50 14 00 be 8b c5 3c be
       -0.07962821 -0.18436503 -0.12507749 -0.18434732
000330 78 34 2f be 0c eb 9b 3d 45 06 13 be 06 2b db bd
       -0.17109859 0.07613191 -0.1435786 -0.107015654
000340 12 c3 a3 bd ae 41 83 3c 14 9e db bd f6 2a fc bd
       -0.07996191 0.01602253 -0.107235104 -0.12312882
000350 ff 71 ae 3c 62 6d 9c bc 46 df b2 bd b1 0f b7 3d
       0.021294592 -0.019095127 -0.08733992 0.0893854
000360 e3 a0 b3 bd 79 f2 83 3c 0e 67 d4 bd 34 0f 30 3e
       -0.08770921 0.01610683 -0.103712186 0.171933
000370 20 08 7d 3d 21 12 1b be d6 95 99 bb f1 12 70 bd
       0.061775327 -0.15143634 -0.0046870513 -0.058611814
000380 36 48 22 3e 00 09 32 be 75 a0 27 3e c7 30 cd bd
       0.15847859 -0.17386246 0.16369803 -0.10019069
000390 c0 49 18 be da ab 2e 3d 88 f7 e4 3d 88 21 78 3d
       -0.14871883 0.04264436 0.11180025 0.060578853
0003a0 62 b1 ec bd 9d e1 37 3d 51 2a be bd e3 8e 53 3d
       -0.115572706 0.044892896 -0.09285415 0.05164994
0003b0 b9 60 62 bd 0e d2 94 bd 8b d8 47 3b af ec 14 3e
       -0.055268023 -0.07266627 0.003049406 0.14543413
0003c0 2b 81 41 be 11 19 e3 bd aa e6 95 ba 80 fd b3 3d
       -0.1889693 -0.110887654 -0.0011436541 0.08788586
0003d0 14 95 e3 3b a4 92 b7 3d b8 68 1f bd d4 b9 8a bd
       0.0069452617 0.08963516 -0.038918227 -0.06773725
0003e0 31 9c e1 3d f1 df a0 ba 54 5b 1d 3e 41 c8 b0 bc
       0.11016119 -0.0012273771 0.1536687 -0.021579864
0003f0 76 1d 20 be 71 81 e7 bd 34 ff 87 3b 5e f5 f1 3d
       -0.15636238 -0.11303986 0.0041502956 0.11814378
